model.pth (torch, 16799 bytes, 4 tensors)

l1.weight f4 [256, 11]
000000 e4 17 74 be a5 60 22 be d3 ad c5 bd e0 16 8c bc
       -0.23837239 -0.1585718 -0.09652295 -0.017100751
000010 d9 b3 4f 3d 48 ea e8 3d 98 d3 5d 3e 4b 54 8e 3e
       0.050708625 0.113728106 0.21662748 0.27798685
000020 ec fe 94 be e7 04 83 bc d9 33 d7 3d ca fa c1 3d
       -0.2910074 -0.015993549 0.10507936 0.09471662
000030 b3 6b 6c 3e e7 09 87 be 99 f6 9c 3d 8a 6a 4a 3e
       0.23087959 -0.26374742 0.07664222 0.19767204
000040 be 14 75 be 38 28 1f 3e 42 6a 0c be 12 02 3e bd
       -0.23933694 0.15542686 -0.13712409 -0.046388693
000050 5a 5c e4 bc e2 da 76 be 94 aa 4c 3e 80 42 39 3d
       -0.027876068 -0.24106935 0.19986945 0.045229435
000060 f9 ff 00 3e 73 4c 2e 3e 21 9c 7d 3e 5d 6d 87 be
       0.12597646 0.1702135 0.2476659 -0.26450625
000070 82 b2 4d be 25 16 64 be 11 02 5c 3e 15 db 77 3e
       -0.20087627 -0.22274072 0.21485163 0.24204667
000080 30 63 f9 3d 88 47 78 3e 50 50 7d 3e 53 0a 7b be
       0.12177122 0.24246037 0.24737668 -0.24515657
000090 b4 c9 7f 3e ee a9 8a be 76 6b 5b be 77 6d 94 be
       0.24979287 -0.2708277 -0.21427712 -0.28989765
0000a0 d1 5b 8e be e3 c4 84 bd c5 82 85 be 08 36 bd 3b
       -0.27804425 -0.06482866 -0.26076332 0.0057742633
0000b0 71 96 93 3e 57 9c 6e be 49 74 55 be 8c a7 14 bd
       0.28825715 -0.23301826 -0.2084514 -0.036292598
0000c0 af a4 10 bc b5 5b 03 3e a0 47 67 be 38 00 a6 3d
       -0.008828326 0.12827952 -0.22585917 0.081055105
0000d0 12 16 a9 bd af 90 99 3d 79 29 c1 3e 07 12 88 bd
       -0.08256163 0.07498299 0.37726954 -0.066440634
0000e0 88 76 58 be 59 5f c0 3d 11 cb 70 bd c4 66 bd bd
       -0.21138966 0.09393186 -0.05878741 -0.092481166
0000f0 cd 78 b5 bd 80 83 7d 3e cb a5 38 3e 12 59 90 bd
       -0.088609315 0.24757195 0.18031995 -0.07048239
000100 87 b3 32 be 32 26 57 3e 2c 11 70 be 1f 7a 8d 3c
       -0.17451297 0.21010664 -0.2344405 0.017270146
000110 9e e9 1c be a1 6b 7a 3e f5 7a a6 3d 0d 01 47 3e
       -0.15323493 0.2445512 0.08128921 0.19433995
000120 e8 57 1c 3e b5 56 c5 3c fc 35 61 be 72 da 4f bd
       0.15267909 0.024089197 -0.2199325 -0.050745435
000130 b1 d8 82 be 4c a4 6c bd b1 df 34 be 90 ea 80 bd
       -0.25555947 -0.057773873 -0.17663456 -0.06294739
000140 14 0c 52 bd 56 52 46 be 6c ca ff 3d f8 23 f1 3d
       -0.05128105 -0.19367346 0.12489781 0.117744386
000150 0c 5a 9a 3e 90 28 9d 3e d6 ed 93 be b7 24 84 be
       0.30146825 0.3069501 -0.28892392 -0.2580926
000160 00 e2 d6 3c 77 71 0f bd 81 6a 0c be 6f f5 7a 3e
       0.026230812 -0.035020318 -0.13712503 0.24507688
000170 38 f3 82 be 01 d8 0c 3e 69 e3 66 be 6b 0e 29 3e
       -0.25576186 0.13754274 -0.22547688 0.16509406
000180 37 0e af 3d 8a 41 82 3e 52 bf 32 be 62 45 33 3e
       0.08547633 0.25440627 -0.17455795 0.17506936
000190 4d 53 37 3e 57 f7 5f be c9 49 d0 3d 5d 1a eb 3d
       0.1790287 -0.21871696 0.101703234 0.11479638
0001a0 d3 7e 2c 3e 9e c2 59 3d 54 a9 a6 be 55 2b 79 bd
       0.16845255 0.053164117 -0.32551062 -0.06083234
0001b0 af ae 6c be 4a d5 64 be be a6 62 3e ff 70 9a 3e
       -0.23113512 -0.22346988 0.2213392 0.30164334
0001c0 b2 23 66 3e 3e 97 25 be 49 89 23 3d 3a f4 97 3d
       0.22474554 -0.16170976 0.039925847 0.074196294
0001d0 15 07 d1 bd 89 cf 4e bc 64 1d 79 3e fa 0f dd bd
       -0.10206429 -0.012622722 0.24327618 -0.10794063
0001e0 9c 4d 87 bd 84 71 55 bd 34 0e 22 3d 0d ce 27 bd
       -0.066066 -0.05211021 0.039564326 -0.04096799
0001f0 2e cd bc 3d c3 72 5e 3e 2c df 8c 3d 3e 96 53 be
       0.092188224 0.21723466 0.06878504 -0.20662782
000200 a2 8b 2d 3e 10 96 b5 bb e3 ac 7b 3e 9f 7b 43 3e
       0.16947797 -0.0055415705 0.2457767 0.19090126
000210 29 13 43 3e b8 f4 7f 3d 2a 68 b4 3e 97 61 9d be
       0.19050278 0.06248924 0.3523572 -0.30738518
000220 ad a0 a3 3e f5 c5 3a be d9 df 05 3e 64 62 5d be
       0.31958523 -0.18239577 0.13073672 -0.21619564
000230 7e 76 a2 3d c3 24 2d be e5 8e 5c be 85 c1 9e 3e
       0.07932757 -0.16908555 -0.21538885 0.3100702
000240 58 6c ba 3d c4 0f 2d bd c6 c5 a3 be 73 86 ac bd
       0.09102696 -0.042251363 -0.31986827 -0.08424082
000250 be 10 8a 3e 35 44 32 3c ff bc 87 bd 90 4f 80 bd
       0.26965898 0.01088052 -0.06627845 -0.06265175
000260 ef 6a 80 3e e1 d3 f9 bc 4e b7 10 be dd b2 7c bc
       0.25081584 -0.03049654 -0.14132425 -0.015423504
000270 36 67 22 3e 76 de dc 3d 78 2c 11 3e 22 b1 46 3e
       0.15859684 0.107846186 0.1417712 0.19403508
000280 21 75 93 3d 44 e4 7c bc cc 37 7c bd 79 a4 85 be
       0.07200075 -0.015435282 -0.06157665 -0.26102045
000290 6b d1 b0 3e d3 83 65 3d 7a 18 2f be 5e 64 48 3e
       0.34534773 0.05603392 -0.17099181 0.19569537
0002a0 c2 96 8d be 2a 44 09 3e 36 8e e9 3d ae 00 f3 3d
       -0.27654082 0.13404909 0.11404078 0.11865364
0002b0 22 c4 de 3d c7 aa 9e 3e 60 63 ac bd 91 21 88 bd
       0.10877253 0.30989668 -0.08417392 -0.06647027
0002c0 f2 5b 36 be c9 6c 46 be 3f 25 9f be 9a ee 9a be
       -0.17808512 -0.19377436 -0.31083104 -0.30260164
0002d0 fd 15 8a 3d 80 ab 97 3e f5 fd 15 3e 15 11 b3 bd
       0.06742475 0.29623032 0.14647658 -0.087434925
0002e0 4b af e1 3c 63 79 6e 3e f2 0f 4b bc 0a 7a 48 3e
       0.027549407 0.23288493 -0.012393938 0.19577804
0002f0 5c 88 aa bd 69 2b 4c be 14 da cd 3d 1a c9 ec bd
       -0.0832679 -0.19938435 0.10051361 -0.115617946
000300 e8 f3 7c 3e a6 63 0d 3e a6 53 4f 3e 23 e9 66 3e
       0.24702418 0.13807544 0.20246753 0.22549872
000310 9d e5 05 3d 45 f6 04 3e 61 0b 43 3e e8 b3 87 3e
       0.03268968 0.1298457 0.1904731 0.26504445
000320 35 58 9f bd 27 67 35 3c 54 09 cc 3c fd 4e 33 3e
       -0.07780496 0.011071957 0.024906792 0.175106
000330 82 05 11 be 5d 9d a0 3d d6 ef 30 be c7 75 80 be
       -0.14162257 0.07842515 -0.1727899 -0.25089857
000340 47 df a2 bd ec 47 2c 3e d2 17 02 3e 80 5c 86 be
       -0.07952743 0.16824311 0.12704399 -0.26242447
000350 40 36 7c bd 04 4a 6d 3e 08 13 dc bd 3a 0d bc bd
       -0.061575174 0.23172766 -0.107458174 -0.0918221
000360 4a 08 81 be 8d ec 88 be 0c 5d 7d be d8 43 6c be
       -0.25201637 -0.26742974 -0.24742526 -0.23072755
000370 c4 1c 72 be 57 ea 73 be 47 7c 7b be f0 e8 51 be
       -0.23643786 -0.23819862 -0.24559127 -0.20499015
000380 48 88 1a 3d 87 3f d2 3d 7c 59 dc bd 2f c3 6a be
       0.037727624 0.10266023 -0.10759255 -0.22926019
000390 19 5c 1d be fc bc 15 3e 76 ab 90 3d f5 5a 2c be
       -0.15367164 0.14622873 0.070639536 -0.16831572
0003a0 01 24 88 3d 3a 09 6a 3e 09 cd 6f be 6e 63 f6 3d
       0.06647492 0.22855082 -0.23418058 0.120306835
0003b0 7f ad 92 3d 99 5e a0 bd f2 92 5d 3e 7d e6 45 bd
       0.07161998 -0.07830543 0.21638086 -0.048315514
0003c0 f6 de bb 3c ad 54 07 3e 80 58 99 be ba cb d6 bc
       0.022933464 0.13215895 -0.29950333 -0.026220191
0003d0 80 b6 26 bc 93 48 2e 3e 2e e3 3a 3d a1 51 83 3e
       -0.010175347 0.17019872 0.04562681 0.25648215
0003e0 ec 71 6c 3e 35 77 75 3e f2 d6 95 3e 6c d6 a3 bd
       0.23090333 0.23971255 0.29265553 -0.07999882
0003f0 60 c3 31 3e e0 b2 ac bd 33 16 7b 3e 9f 3f 65 bd
       0.17359686 -0.08432555 0.24520187 -0.055968877

l1.bias f4 [256]
000000 1c f6 80 3d f5 09 75 3d f6 e3 5e 3e 3c 62 90 be
       0.06296942 0.05982395 0.21766648 -0.28199947
000010 3b 5e a1 3e fb 9b 3f 3d 52 68 e3 bd 07 68 44 be
       0.31517205 0.046779614 -0.11103882 -0.19180308
000020 cb 27 88 bd 93 d4 c8 3d 66 9e 06 bd 5f cf f6 3d
       -0.06648215 0.0980617 -0.032865904 0.12051272
000030 5e 4d 1f 3e 68 f6 83 be a1 81 92 bd 80 70 23 bc
       0.15556857 -0.2577393 -0.07153631 -0.009975553
000040 d8 c2 1b 3e b7 b6 02 3e a5 ea 47 3c f7 40 18 be
       0.15211046 0.12765013 0.01220194 -0.14868532
000050 78 4a 8d 3d 17 08 48 3e 0c 11 6f be e6 12 a6 3c
       0.068989694 0.19534336 -0.23346347 0.020272683
000060 7b 27 32 3c dd 5d 6e 3e b9 3b 26 3e 7f d5 97 bd
       0.010873671 0.23277994 0.1623372 -0.07413768
000070 da d3 0f 3d e7 33 6b 3e f5 dc 7d 3e a2 5c 92 be
       0.035114147 0.22969018 0.2479132 -0.28586298
000080 43 9a 86 be 03 8c 62 be 3b e8 c1 bd 40 16 2c 3e
       -0.26289567 -0.22123723 -0.094681226 0.16805363
000090 f2 2e 04 3e 61 42 d9 3d 04 a6 e5 3d 2f 0a 0c bd
       0.12908533 0.10608364 0.112133056 -0.0341894
0000a0 69 23 c1 3c 31 17 80 3c aa e4 8d 3e b0 dc 19 3c
       0.023576455 0.015636059 0.2771352 0.009390995
0000b0 80 6b 6f 3e 84 33 85 3e cd 13 31 be f5 ba ab 3d
       0.23380852 0.26015866 -0.1729271 0.083852686
0000c0 5b 8c bd 3d 23 95 b6 bc c3 02 e4 3c 0c 96 42 be
       0.09255286 -0.02228791 0.027833348 -0.19002551
0000d0 4e 26 ed 3d 55 f4 37 be 0a 54 53 be 7c 90 3f be
       0.11579572 -0.17964299 -0.20637527 -0.1870746
0000e0 f4 4b 26 be db 98 f0 3d 72 ec 1a be 92 f9 a5 be
       -0.16239911 0.11747905 -0.15129259 -0.3241697
0000f0 b0 ab 66 3e 13 73 0b 3d 60 75 86 be da 9d 77 be
       0.22526431 0.03404529 -0.26261425 -0.2418131
000100 69 22 01 be e8 a0 6e bd 5c 8b 7a 3e 37 e5 8f 3e
       -0.12610783 -0.05825892 0.24467224 0.28104565
000110 34 8e 84 3d 3c 96 95 bd 6f b7 28 3e 4a ec 69 3e
       0.064724356 -0.073040456 0.16476224 0.22844043
000120 31 35 d4 bc 21 dc c1 3b 0c de 87 3e 2a 26 8d be
       -0.02590427 0.005916134 0.26536596 -0.2756818
000130 f0 23 2a be 7b 37 93 be ec b2 00 3d cc 5a 48 3e
       -0.16615272 -0.28753266 0.031420633 0.19565886
000140 c2 a5 89 3e ab cb 7f 3e e8 ad 5a be e4 59 a4 3d
       0.26884276 0.24980037 -0.21355402 0.08024958
000150 bd b3 ac 3d 2d 25 9b 3e 7d d9 80 be 27 0f b3 3b
       0.0843272 0.303018 -0.2516593 0.005464453
000160 ef 66 ce bd 2e a7 34 3d c6 96 80 be 1f a1 1d 3c
       -0.10078227 0.044104747 -0.2511503 0.009620934
000170 1e 0a 91 be 16 f0 ee 3d 09 6b 50 be b4 9c 9a 3d
       -0.2832803 0.116668865 -0.2035333 0.0754942
000180 0f ea 94 3e 7e 68 ae bd 8a ac 37 3e d8 38 9a 3e
       0.29084823 -0.08516024 0.17936912 0.30121493
000190 66 25 1c be 50 67 60 be 36 51 56 3e 12 8e ed 3d
       -0.15248641 -0.2191441 0.20929417 0.115993634
0001a0 cc 74 8c 3e 60 e6 1c 3e c4 fa b6 3d 34 ee 77 3a
       0.2743286 0.15322256 0.089345485 0.0009457797
0001b0 1c 79 a3 bd bb 03 89 be 66 c3 86 3e d7 97 8e 3e
       -0.07982084 -0.2676066 0.26320952 0.2785022
0001c0 36 97 11 be 17 be 87 3d be 38 44 3d 4b 84 85 3d
       -0.14217839 0.06628054 0.047905676 0.065193735
0001d0 3c b0 86 be bf 20 8c 3d 7c 15 4d be c9 45 b0 bd
       -0.2630633 0.06842183 -0.20027727 -0.086070605
0001e0 a9 19 95 be a0 ea 1d be 68 df 97 3e fd 4f 0c 3d
       -0.2912114 -0.15421534 0.29662633 0.03425597
0001f0 cc 8b cc bd 0e a6 5e 3e bb 5c 1e bd b0 a1 e1 bd
       -0.09987602 0.21743032 -0.038662653 -0.110171676
000200 74 d1 b7 bd 0d 37 fa 3c 65 ff cb bd 81 be 15 be
       -0.08975497 0.030543828 -0.09960822 -0.14623453
000210 c7 ad 3a be c1 7a 17 bd 24 c6 9e 3e a5 e9 30 3e
       -0.18230353 -0.0369823 0.31010544 0.17276628
000220 37 51 0a bd 03 71 35 3e 0b 91 3d 3e 94 6a 97 be
       -0.03376886 0.17718892 0.18512361 -0.295735
000230 7e 93 8b be f7 13 85 3e 49 c9 d4 bd ea 60 e8 3d
       -0.27260965 0.25991794 -0.103899546 0.1134661
000240 92 e2 59 be 6e a1 01 be ff 3f 8c 3e 80 35 61 be
       -0.21277836 -0.12659237 0.27392575 -0.21993065
000250 4a c0 91 be 52 54 13 3d 29 84 8b 3e 46 6a 12 3e
       -0.28467017 0.035969086 0.27249268 0.14298353
000260 72 63 2b bd f7 0f 94 3e f5 f6 f1 3d fd 23 e2 bd
       -0.041842885 0.2891843 0.118146814 -0.110420205
000270 5e bf 8b bd 0e 25 0b 3e f4 3f 8a 3e 74 ac 11 be
       -0.0682361 0.13588354 0.27001917 -0.14225942
000280 10 a9 c3 3d fb ef 3d 3e a9 60 87 be 2f 34 63 be
       0.095537305 0.18548577 -0.26440933 -0.22187875
000290 85 d1 1d 3d 33 c0 38 be b1 9c b6 3e a0 2c e5 bd
       0.03852989 -0.18042068 0.3566642 -0.11190152
0002a0 94 67 a4 3e 77 5a 7c 3e fd e6 a2 3d 46 72 90 bd
       0.32110274 0.24643885 0.07954214 -0.07053046
0002b0 a8 a5 85 be c2 cb 25 bd c5 a8 32 bd 9f 3d 9b 3e
       -0.26102948 -0.04047752 -0.043617982 0.3032045
0002c0 a3 e2 af 3d 8c 15 b5 bd c1 44 73 3e 3b 8d 61 be
       0.085881494 -0.08842 0.23756696 -0.22026531
0002d0 47 ac 04 be 62 ad 87 3e 48 de b9 bd 6b 42 89 3e
       -0.12956344 0.26499468 -0.090756 0.26808485
0002e0 29 9e 34 3e c0 65 e6 bd f5 ee 08 3e 7e 20 8a 3c
       0.17638458 -0.11249876 0.13372405 0.016861197
0002f0 1e e1 4e be 1d d3 90 3e 35 7c e7 bd f0 87 75 3e
       -0.20203063 0.28286067 -0.113029875 0.23977637
000300 8c f3 79 3e 96 63 52 be a9 72 2c 3d 3d 9e cb 3d
       0.24409312 -0.20545802 0.042101536 0.09942291
000310 75 dd 90 3d 30 ea d7 3d 45 cc 1a 3d 3b ef 65 3c
       0.070734896 0.105427146 0.037792463 0.014034088
000320 9f 25 39 be b4 02 ab bd ef e3 d2 3d 2e 95 5a be
       -0.18080758 -0.08350125 0.10297381 -0.2134597
000330 c9 81 48 3e a0 1b 2b 3d f8 11 99 3e a8 34 57 be
       0.19580759 0.041774392 0.29896522 -0.2101618
000340 c9 f2 67 3e dd 27 b9 3d 5a 90 ac bd 60 6f 49 3c
       0.22651209 0.090408064 -0.084259704 0.01229462
000350 c4 70 62 be 5a 4b 4b be 54 26 6c bd d5 df 8d 3e
       -0.22113329 -0.19852963 -0.05765374 0.27709833
000360 5d 37 95 3d dc 7c 88 bd d0 9d 18 bd 93 e3 47 3e
       0.0728595 -0.0666444 -0.037259877 0.19520406
000370 d3 90 1f be 64 3f 28 bb 66 c1 ca 3d 63 fe 8c be
       -0.1558259 -0.002567255 0.09900169 -0.27537832
000380 34 c9 ff bd 31 20 33 3e 3b 2b 91 3e 06 1e ab bd
       -0.12489548 0.17492749 0.28353295 -0.08355336
000390 83 af 95 be 1a df 91 3e b2 c8 45 3e 7d db ef bc
       -0.29235467 0.28490525 0.1931484 -0.029279465
0003a0 1f 43 20 3e 13 00 1e 3e 65 49 19 3e 29 78 56 be
       0.15650605 0.15429716 0.14969404 -0.20944275
0003b0 ab fb 8d 3e 4f 9d 96 be e2 f6 63 3e 63 0d c5 bd
       0.2773107 -0.29416892 0.22262147 -0.09621694
0003c0 e1 e1 b2 3d 01 49 08 3e a3 57 36 bc 8c e5 ad bd
       0.08734489 0.13309099 -0.011129293 -0.08491048
0003d0 af 00 d5 3c 40 84 c4 3d 12 f3 61 3e 7a ac b6 3d
       0.026001303 0.09595537 0.2206538 0.08919616
0003e0 6a 09 53 3e 38 dd 08 3e 20 41 7b be 5d db 9b bd
       0.2060906 0.13365638 -0.24536562 -0.076101996
0003f0 58 33 d4 bd c9 7d 9b 3e f7 84 b1 3e de b0 87 bb
       -0.103613555 0.30369404 0.34671757 -0.0041409573

l3.weight f4 [3, 256]
000000 69 54 49 bd 5e 43 43 bc 31 05 f0 bc e7 15 d0 bc
       -0.049152765 -0.011917917 -0.02929935 -0.025401069
000010 8b 06 de bd 52 08 3c 3b c1 f0 b4 3c ae 79 fb bd
       -0.10841092 0.0028691483 0.022087457 -0.12279068
000020 c5 9a fd 3c 5c 67 ec 39 2a 55 85 bd 7e 2e 80 3b
       0.030957589 0.00045090436 -0.065103844 0.0039117923
000030 c8 ad aa bd 19 47 53 bc 12 fd a0 bd bb 7d 1d ba
       -0.083339274 -0.012895369 -0.07860769 -0.000600781
000040 0d 4b 01 bd 06 6e 72 bd 96 ff 8b 3b bc b7 c7 bc
       -0.031565715 -0.059186958 0.0042724116 -0.024379604
000050 f5 f2 de 3d a6 93 8d ba c3 0a 90 bd 4d ec 2c bc
       0.10886184 -0.0010801449 -0.07033303 -0.010554385
000060 61 ca 91 bd bd 73 da bd 71 d8 2a bd 47 8b 5f bd
       -0.07118679 -0.106666066 -0.04171032 -0.054576185
000070 c3 5d 5f bd cc b6 1c 3c 13 9d 07 bd 7d cd 94 bd
       -0.054532778 0.009565067 -0.033108782 -0.07265756
000080 57 6e ed 3c 6b 12 d8 3c 88 eb 48 bd 0d 2a 0d bd
       0.028983278 0.02637597 -0.049052745 -0.03446393
000090 5e 7d a5 3c ca 43 6a 3d 09 0d 84 bc db d5 5e bc
       0.020201381 0.057193555 -0.016119497 -0.013600792
0000a0 78 bb b6 bb e1 82 9a bd 2f fd b0 bc f9 e0 85 bd
       -0.0055765472 -0.075444944 -0.021605102 -0.06537051
0000b0 bb 63 d8 bd 57 67 30 bd b1 ea 1f 3c f3 6e 80 bd
       -0.10565897 -0.043067303 0.009760545 -0.06271162
0000c0 76 84 62 bd 47 2b 02 bc 1c 12 f6 bc 23 0f ae bc
       -0.055302106 -0.007944888 -0.030037932 -0.021247452
0000d0 f7 99 b0 3c ed df e3 3c 02 60 91 bc 8d e3 70 3a
       0.021557791 0.027816737 -0.017745975 0.0009189181
0000e0 98 c1 79 3d df f4 80 3c be 26 63 bd b0 0a 54 3c
       0.06097564 0.015741764 -0.05545687 0.012942001
0000f0 bc 66 84 3b be 41 46 3b 3b bd ba bc a0 53 00 3d
       0.004040567 0.0030251588 -0.02279531 0.03132975
000100 52 15 ce bd 3c 96 2c bd cc ce 22 bd 11 52 b5 bd
       -0.1006266 -0.042135462 -0.039747998 -0.088535435
000110 59 46 81 bd be 18 8f bd ad 58 7a 3b 56 78 8f 3c
       -0.06312246 -0.06987141 0.0038199828 0.017513435
000120 3f a9 01 bd 9d 57 07 3c be 39 c7 bd 5f 54 eb 3c
       -0.031655546 0.008260635 -0.0972781 0.028726755
000130 2c a9 46 3d 44 27 c1 bc db 16 58 bd 93 be 2d bd
       0.04850118 -0.023578294 -0.05275617 -0.042418074
000140 04 d5 08 3c 74 49 b0 3c d8 7d 3f bd 56 a3 27 bc
       0.008351568 0.0215194 -0.046750873 -0.010231813
000150 02 87 d6 bd 80 35 42 bd 25 33 4d 3d 6b db 07 bc
       -0.104749694 -0.047414303 0.050097603 -0.008292059
000160 9e 92 be bd 69 5e 5b 3b 8a b5 86 bd da 4f c5 bd
       -0.09305309 0.003347302 -0.065775946 -0.09634371
000170 f7 9f 13 bd 1f eb 92 bc 53 06 9e bc f9 6a 47 bd
       -0.036041226 -0.01793438 -0.019290125 -0.048686
000180 b2 95 2d bd bf 7c 9a bc 57 a1 b9 bd f1 cf 56 bd
       -0.04237909 -0.018858312 -0.09063976 -0.052444402
000190 cd 75 06 3e c8 b7 2e 3d 19 f2 c6 bc 9f b3 b7 3c
       0.13130875 0.042655736 -0.024285363 0.022424517
0001a0 b5 00 73 bd 59 69 53 bd 84 f0 7d bd ac f1 5d bd
       -0.059326846 -0.05161414 -0.06199695 -0.054185554
0001b0 8b f2 04 3d f8 30 25 bd a8 05 16 bd 3a c6 9a bd
       0.03245787 -0.040329903 -0.036626488 -0.0755734
0001c0 00 c2 90 3b c7 96 d1 bc a0 fe 85 bd 37 96 4a 3c
       0.004417658 -0.025584592 -0.065427065 0.012364916
0001d0 f0 cb 1e bd 8e 5c be bb f7 7b 13 bd cb c1 8a bd
       -0.03876871 -0.005809373 -0.036006894 -0.06775244
0001e0 80 ec 5d bb 76 16 12 bd b0 fe 52 bc dc 9a 55 bd
       -0.0033862889 -0.03566595 -0.012878105 -0.05214964
0001f0 35 ca 92 bd 9b 3d 9e bd 52 21 93 bd d8 4c ed 3c
       -0.07167474 -0.07726594 -0.0718409 0.028967306
000200 62 68 90 ba 48 9d 8b bd 64 3e 61 bd 18 ec 99 3d
       -0.0011017437 -0.068171084 -0.05499114 0.075157344
000210 bc 84 49 bd 2a 33 74 bd 7b 91 9c bc 9d fa 05 bc
       -0.04919885 -0.059619106 -0.01911234 -0.008177427
000220 ae 4d 4f bd 69 e6 bd bd 3a f4 ee bb dc cb 2f bd
       -0.05061119 -0.09272463 -0.0072922977 -0.042919025
000230 5a d3 9a bd af bb 86 bd dc 5f 91 bd c0 6a 2f bd
       -0.07559843 -0.065787666 -0.07098362 -0.042826414
000240 98 62 49 bc 8d 13 89 bc 48 94 bb bd 80 cc 5e bb
       -0.012291573 -0.016732955 -0.09159142 -0.0033996403
000250 df d3 81 bd 74 9d 66 bd 35 c9 9b bd e1 d1 a7 bc
       -0.06339239 -0.056302503 -0.076067366 -0.02048582
000260 38 12 d2 bb 77 50 f0 3c 8e ff a7 bd ec b1 29 bd
       -0.0064108633 0.029335244 -0.0820304 -0.041429445
000270 5e db dd bd 0a 12 9a bc e6 27 87 3c 2e 46 21 bd
       -0.108328566 -0.01880743 0.016498517 -0.03937357
000280 1c 05 36 3a 3d b3 2a bd 4b b7 68 bd 66 f2 d3 bd
       0.00069435104 -0.04167484 -0.056815427 -0.10348968
000290 f1 77 bc bd 19 8b cc bc 54 2a a5 bd 42 4b 9b bd
       -0.092025645 -0.02496867 -0.08064714 -0.07582714
0002a0 9d 24 9f bd e7 34 82 bd 3f 53 22 3d 6f 52 5b bd
       -0.07770655 -0.063577466 0.03963017 -0.05354541
0002b0 04 70 59 3d 39 0a 9d bc 57 20 5c 3c 65 f9 18 bc
       0.053085342 -0.019169914 0.013435445 -0.009336804
0002c0 42 67 84 3c d2 04 ec bc ee 29 cb bd 6f 10 92 bd
       0.016162518 -0.028810892 -0.09920107 -0.07132041
0002d0 77 ae 8f 3d 73 a3 4a bd 00 51 0d bd 27 44 a5 bd
       0.070156984 -0.049472284 -0.034501076 -0.0806964
0002e0 91 3d 65 bd 64 f9 33 3d 98 48 80 3d b7 ed fa bc
       -0.055966917 0.04393901 0.06263846 -0.03063093
0002f0 da 45 52 bd fe 29 d8 bc be 21 93 bd 2b 18 c3 3c
       -0.051336147 -0.026387211 -0.0718417 0.023815235
000300 95 d1 27 bd 28 a0 ac bd 32 5c c6 bc a8 65 9a bd
       -0.040971357 -0.08428985 -0.024213884 -0.07538921
000310 cf 94 a3 3d cc 55 aa bc 2b f2 25 3d 87 fe d8 3c
       0.07987367 -0.020792864 0.040514152 0.026488556
000320 b7 e5 ca bc 8a 8f e8 bc 39 10 42 bd 08 98 7e 3d
       -0.02476774 -0.028388757 -0.047378752 0.062156707
000330 45 6d 93 bc 52 54 bf bd bf d2 e4 bd d9 9a 91 bd
       -0.01799644 -0.09342255 -0.11173009 -0.07109613
000340 16 d2 ab 3c db d0 7d bd d8 13 ae bb 0e b4 82 bb
       0.0209742 -0.06196676 -0.005312424 -0.0039887493
000350 ac 8c 93 3c 0a b5 56 bc f6 dc 3c 3c 90 34 a6 bd
       0.018011414 -0.0131046865 0.011527291 -0.08115494
000360 cc e0 5c bd fe 2d 88 bb e3 b4 a6 3d be e2 75 3d
       -0.05392532 -0.0041558733 0.0813997 0.06003069
000370 d7 97 3e 3d 72 e6 82 bc 85 d1 f3 3c 21 6f 16 bc
       0.046531525 -0.015979026 0.029762993 -0.009181769
000380 fc f8 1d 3c 9f 08 f5 bb f4 a3 bd bd 40 89 3d bd
       0.009641882 -0.0074778344 -0.09259787 -0.04627347
000390 88 98 1a bc 18 12 de bd c6 83 98 bd 18 62 72 bb
       -0.00943578 -0.10843295 -0.07447009 -0.0036984738
0003a0 ac a0 39 3d fe 39 41 39 ac ad 7c bd 50 91 ea 3c
       0.045319244 0.00018427518 -0.061689064 0.028633744
0003b0 30 fb 9f bd f1 23 01 3d 04 f9 fe bd f8 83 d8 bd
       -0.07811582 0.031528417 -0.1244984 -0.10572046
0003c0 13 db 87 3c 74 14 75 bc ea f7 57 bd 28 1e 41 bd
       0.016583955 -0.01495849 -0.052726664 -0.0471479
0003d0 f3 d7 90 bd 1f 2c 2f 3d 43 64 69 bd 91 a2 a1 bd
       -0.07072439 0.042766687 -0.056980383 -0.07892335
0003e0 7d 99 7e 3c 89 6b 9d 3d b7 a2 a3 bc 7c e5 04 bd
       0.015539524 0.07686526 -0.01997505 -0.032445416
0003f0 28 c8 0d 3d 22 98 fc bd e5 a9 6d bd 7c 7c cc 3d
       0.034614712 -0.123337045 -0.058023352 0.09984681

l3.bias f4 [3]
000000 64 c9 7d bd 3e 63 d2 bd fe f5 c0 bd
       -0.06195964 -0.10272835 -0.09421919
